…
#39;same&#39;, activation=&#39;relu&#39;), layers.MaxPooling2D(), layers.Dropout(0.2), layers.Flatten(), layers.Dense(128, activation=&#39;relu&#39;), layers.Dense(num_classes) ]) . Compile the model . model.compile(optimizer=&#39;adam&#39;, loss=tf.keras.losses.SparseCategoricalCrossentropy(from_logits=True), metrics=[&#39;accuracy&#39;]) . Model summary . model.summary() . Model: &#34;sequential_3&#34; _________________________________________________________________ Layer (type) Output Shape Param # ================================================================= sequential_1 (Sequential) (None, 180, 180, 3) 0 rescaling_3 (Rescaling) (None, 180, 180, 3) 0 conv2d_6 (Conv2D) (None, 180, 180, 16) 448 max_pooling2d_6 (MaxPooling (None, 90, 90, 16) 0 2D) conv2d_7 (Conv2D) (None, 90, 90, 32) 4640 max_pooling2d_7 (MaxPooling (None, 45, 45, 32) 0 2D) conv2d_8 (Conv2D) (None, 45, 45, 64) 18496 max_pooling2d_8 (MaxPooling (None, 22, 22, 64) 0 2D) dropout_1 (Dropout) (None, 22, 22, 64) 0 flatten_2 (Flatten) (None, 30976) 0 dense_4 (Dense) (None, 128) 3965056 dense_5 (Dense) (None, 3) 387 ================================================================= Total params: 3,989,027 Trainable params: 3,989,027 Non-trainable params: 0 _________________________________________________________________ . Train the model . epochs = 15 history = model.fit( tr_ds, validation_data=val_ds, epochs=epochs ) . Epoch 1/15 26/26 [==============================] - 12s 432ms/step - loss: 1.0776 - accur
…
