…
    "              loss=tf.keras.losses.SparseCategoricalCrossentropy(from_logits=True),\n",
    "              metrics=['accuracy'])"
   ]
  },
  {
   "cell_type": "code",
   "execution_count": 16,
   "id": "norwegian-camping",
   "metadata": {},
   "outputs": [
    {
     "name": "stdout",
     "output_type": "stream",
     "text": [
      "Model: \"sequential\"\n",
      "_________________________________________________________________\n",
      " Layer (type)                Output Shape              Param #   \n",
      "=================================================================\n",
      " rescaling_1 (Rescaling)     (None, 180, 180, 3)       0         \n",
      "                                                                 \n",
      " conv2d (Conv2D)             (None, 180, 180, 16)      448       \n",
      "                                                                 \n",
      " max_pooling2d (MaxPooling2D  (None, 90, 90, 16)       0         \n",
      " )                                                               \n",
      "                                                                 \n",
      " conv2d_1 (Conv2D)           (None, 90, 90, 32)        4640      \n",
      "                                                                 \n",
      " max_pooling2d_1 (MaxPooling  (None, 45, 45, 32)       0         \n",
      " 2D)                                                             \n",
      "                                                                 \n",
      " conv2d_2 (Conv2D)           (None, 45, 45, 64)        18496     \n",
      "                                                                 \n",
      " max_pooling2d_2 (MaxPooling  (None, 22, 22, 64)       0         \n",
      " 2D)                                                             \n",
      "                                                                 \n",
      " flatten (Flatten)           (None, 30976)             0         \n",
      "                                                                 \n",
      " dense (Dense)               (None, 128)               3965056   \n",
      "                                                                 \n",
      " dense_1 (Dense)             (None, 3)                 387       \n",
      "                                                                 \n",
      "=================================================================\n",
      "Total params: 3,989,027\n",
      "Trainable params: 3,989,027\n",
      "Non-trainable params: 0\n",
      "_________________________________________________________________\n"
     ]
    }
   ],
   "source": [
    "model.summary()"
…
